…
WARNING:tensorflow:From /home/wili/software/anaconda3/envs/caffe/lib/python3.7/site-packages/mmdnn/conversion/tensorflow/tensorflow_parser.py:312: The name tf.train.export_meta_graph is deprecated. Please use tf.compat.v1.train.export_meta_graph instead.

WARNING: Logging before InitGoogleLogging() is written to STDERR
I0529 15:19:15.278082 72078 net.cpp:51] Initializing net from parameters: 
state {
  phase: TRAIN
  level: 0
}
layer {
  name: "Placeholder"
  type: "Input"
  top: "Placeholder"
  input_param {
    shape {
      dim: 1
      dim: 1
      dim: 28
      dim: 28
    }
  }
}
layer {
  name: "Conv2D"
  type: "Convolution"
  bottom: "Placeholder"
  top: "Conv2D"
  convolution_param {
    num_output: 32
    bias_term: false
    group: 1
    stride: 1
    pad_h: 2
    pad_w: 2
    kernel_h: 5
    kernel_w: 5
  }
}
layer {
  name: "Relu"
  type: "ReLU"
  bottom: "Conv2D"
  top: "Conv2D"
}
layer {
  name: "MaxPool2d"
  type: "Pooling"
  bottom: "Conv2D"
  top: "MaxPool2d"
  pooling_param {
    pool: MAX
    kernel_size: 2
    stride: 2
    pad_h: 0
    pad_w: 0
  }
}
layer {
  name: "Conv2D_1"
  type: "Convolution"
  bottom: "MaxPool2d"
  top: "Conv2D_1"
  convolution_param {
    num_output: 64
    bias_term: false
    group: 1
    stride: 1
    pad_h: 2
    pad_w: 2
    kernel_h: 5
    kernel_w: 5
  }
}
layer {
  name: "Relu_1"
  type: "ReLU"
  bottom: "Conv2D_1"
  top: "Conv2D_1"
}
layer {
  name: "MaxPool2d_1"
  type: "Pooling"
  bottom: "Conv2D_1"
  top: "MaxPool2d_1"
  pooling_param {
    pool: MAX
    kernel_size: 2
    stride: 2
    pad_h: 0
    pad_w: 0
  }
}
layer {
  name: "Reshape"
  type: "Reshape"
  bottom: "MaxPool2d_1"
  top: "Reshape"
  reshape_param {
    shape {
      dim: 1
      dim: 3136
    }
  }
}
layer {
  name: "MatMul"
  type: "InnerProduct"
  bottom: "Reshape"
  top: "MatMul"
  inner_product_param {
    num_output: 1024
    bias_term: false
  }
}
layer {
  name: "Relu_2"
  type: "ReLU"
  bottom: "MatMul"
  top: "MatMul"
}
layer {
  name: "MatMul_1"
  type: "InnerProduct"
  bottom: "MatMul"
  top: "MatMul_1"
  inner_product_param {
    num_output: 10
    bias_term: false
  }
}
layer {
  name: "y"
  type: "Softmax"
  bottom: "MatMul_1"
  top: "y"
}
I0529 15:19:15.278178 72078 layer_factory.hpp:77] Creating layer Placeholder
I0529 15:19:15.278192 72078 net.cpp:84] Creating Layer Placeholder
I0529 15:19:15.278198 72078 net.cpp:380] Placeholder -> Placeholder
I0529 15:19:15.278224 72078 net.cpp:122] Setting up Placeholder
I0529 15:19:15.278231 72078 net.cpp:129] Top shape: 1 1 28 28 (784)
I0529 15:19:15.278237 72078 net.cpp:137] Memory required for data: 3136
I0529 15:19:15.278241 72078 layer_factory.hpp:77] Creating layer Conv2D
I0529 15:19:15.278249 72078 net.cpp:84] Creating Layer Conv2D
I0529 15:19:15.278254 72078 net.cpp:406] Conv2D <- Placeholder
I0529 15:19:15.278259 72078 net.cpp:380] Conv2D -> Conv2D
I0529 15:19:15.278275 72078 net.cpp:122] Setting up Conv2D
I0529 15:19:15.278281 72078 net.cpp:129] Top shape: 1 32 28 28 (25088)
I0529 15:19:15.278287 72078 net.cpp:137] Memory required for data: 103488
I0529 15:19:15.278295 72078 layer_factory.hpp:77] Creating layer Relu
I0529 15:19:15.278302 72078 net.cpp:84] Creating Layer Relu
I0529 15:19:15.278307 72078 net.cpp:406] Relu <- Conv2D
I0529 15:19:15.278313 72078 net.cpp:367] Relu -> Conv2D (in-place)
I0529 15:19:15.278321 72078 net.cpp:122] Setting up Relu
I0529 15:19:15.278326 72078 net.cpp:129] Top shape: 1 32 28 28 (25088)
I0529 15:19:15.278331 72078 net.cpp:137] Memory required for data: 203840
I0529 15:19:15.278335 72078 layer_factory.hpp:77] Creating layer MaxPool2d
I0529 15:19:15.278340 72078 net.cpp:84] Creating Layer MaxPool2d
I0529 15:19:15.278345 72078 net.cpp:406] MaxPool2d <- Conv2D
I0529 15:19:15.278350 72078 net.cpp:380] MaxPool2d -> MaxPool2d
I0529 15:19:15.278359 72078 net.cpp:122] Setting up MaxPool2d
I0529 15:19:15.278365 72078 net.cpp:129] Top shape: 1 32 14 14 (6272)
I0529 15:19:15.278371 72078 net.cpp:137] Memory required for data: 228928
I0529 15:19:15.278375 72078 layer_factory.hpp:77] Creating layer Conv2D_1
I0529 15:19:15.278383 72078 net.cpp:84] Creating Layer Conv2D_1
I0529 15:19:15.278386 72078 net.cpp:406] Conv2D_1 <- MaxPool2d
I0529 15:19:15.278391 72078 net.cpp:380] Conv2D_1 -> Conv2D_1
I0529 15:19:15.278417 72078 net.cpp:122] Setting up Conv2D_1
I0529 15:19:15.278424 72078 net.cpp:129] Top shape: 1 64 14 14 (12544)
I0529 15:19:15.278430 72078 net.cpp:137] Memory required for data: 279104
I0529 15:19:15.278441 72078 layer_factory.hpp:77] Creating layer Relu_1
I0529 15:19:15.278448 72078 net.cpp:84] Creating Layer Relu_1
I0529 15:19:15.278455 72078 net.cpp:406] Relu_1 <- Conv2D_1
I0529 15:19:15.278460 72078 net.cpp:367] Relu_1 -> Conv2D_1 (in-place)
I0529 15:19:15.278465 72078 net.cpp:122] Setting up Relu_1
I0529 15:19:15.278470 72078 net.cpp:129] Top shape: 1 64 14 14 (12544)
I0529 15:19:15.278475 72078 net.cpp:137] Memory required for data: 329280
I0529 15:19:15.278481 72078 layer_factory.hpp:77] Creating layer MaxPool2d_1
I0529 15:19:15.278486 72078 net.cpp:84] Creating Layer MaxPool2d_1
I0529 15:19:15.278491 72078 net.cpp:406] MaxPool2d_1 <- Conv2D_1
I0529 15:19:15.278496 72078 net.cpp:380] MaxPool2d_1 -> MaxPool2d_1
I0529 15:19:15.278503 72078 net.cpp:122] Setting up MaxPool2d_1
I0529 15:19:15.278509 72078 net.cpp:129] Top shape: 1 64 7 7 (3136)
I0529 15:19:15.278515 72078 net.cpp:137] Memory required for data: 341824
I0529 15:19:15.278519 72078 layer_factory.hpp:77] Creating layer Reshape
I0529 15:19:15.278525 72078 net.cpp:84] Creating Layer Reshape
I0529 15:19:15.278532 72078 net.cpp:406] Reshape <- MaxPool2d_1
I0529 15:19:15.278537 72078 net.cpp:380] Reshape -> Reshape
I0529 15:19:15.278545 72078 net.cpp:122] Setting up Reshape
I0529 15:19:15.278551 72078 net.cpp:129] Top shape: 1 3136 (3136)
I0529 15:19:15.278558 72078 net.cpp:137] Memory required for data: 354368
I0529 15:19:15.278561 72078 layer_factory.hpp:77] Creating layer MatMul
I0529 15:19:15.278566 72078 net.cpp:84] Creating Layer MatMul
I0529 15:19:15.278573 72078 net.cpp:406] MatMul <- Reshape
I0529 15:19:15.278578 72078 net.cpp:380] MatMul -> MatMul
I0529 15:19:15.283522 72078 net.cpp:122] Setting up MatMul
I0529 15:19:15.283550 72078 net.cpp:129] Top shape: 1 1024 (1024)
I0529 15:19:15.283557 72078 net.cpp:137] Memory required for data: 358464
I0529 15:19:15.283565 72078 layer_factory.hpp:77] Creating layer Relu_2
I0529 15:19:15.283573 72078 net.cpp:84] Creating Layer Relu_2
I0529 15:19:15.283577 72078 net.cpp:406] Relu_2 <- MatMul
I0529 15:19:15.283583 72078 net.cpp:367] Relu_2 -> MatMul (in-place)
I0529 15:19:15.283591 72078 net.cpp:122] Setting up Relu_2
I0529 15:19:15.283593 72078 net.cpp:129] Top shape: 1 1024 (1024)
I0529 15:19:15.283597 72078 net.cpp:137] Memory required for data: 362560
I0529 15:19:15.283601 72078 layer_factory.hpp:77] Creating layer MatMul_1
I0529 15:19:15.283607 72078 net.cpp:84] Creating Layer MatMul_1
I0529 15:19:15.283610 72078 net.cpp:406] MatMul_1 <- MatMul
I0529 15:19:15.283615 72078 net.cpp:380] MatMul_1 -> MatMul_1
I0529 15:19:15.283627 72078 net.cpp:122] Setting up MatMul_1
I0529 15:19:15.283633 72078 net.cpp:129] Top shape: 1 10 (10)
I0529 15:19:15.283638 72078 net.cpp:137] Memory required for data: 362600
I0529 15:19:15.283641 72078 layer_factory.hpp:77] Creating layer y
I0529 15:19:15.283648 72078 net.cpp:84] Creating Layer y
I0529 15:19:15.283651 72078 net.cpp:406] y <- MatMul_1
I0529 15:19:15.283656 72078 net.cpp:380] y -> y
I0529 15:19:15.283668 72078 net.cpp:122] Setting up y
I0529 15:19:15.283674 72078 net.cpp:129] Top shape: 1 10 (10)
I0529 15:19:15.283677 72078 net.cpp:137] Memory required for data: 362640
I0529 15:19:15.283681 72078 net.cpp:200] y does not need backward computation.
I0529 15:19:15.283685 72078 net.cpp:200] MatMul_1 does not need backward computation.
I0529 15:19:15.283689 72078 net.cpp:200] Relu_2 does not need backward computation.
I0529 15:19:15.283692 72078 net.cpp:200] MatMul does not need backward computation.
…
