Model: "MNISTExample"
_________________________________________________________________
 Layer (type)                Output Shape              Param #   
=================================================================
 input_1 (InputLayer)        [(None, 28, 28, 2)]       0         
                                                                 
 conv1 (Conv2D)              (None, 28, 28, 32)        1632      
                                                                 
 pool1 (MaxPooling2D)        (None, 14, 14, 32)        0         
                                                                 
 conv2 (Conv2D)              (None, 14, 14, 64)        51264     
                                                                 
 pool2 (MaxPooling2D)        (None, 7, 7, 64)          0         
                                                                 
 reshape (Reshape)           (None, 3136)              0         
                                                                 
 dense1 (Dense)              (None, 1024)              3212288   
                                                                 
 dense2 (Dense)              (None, 10)                10250     
                                                                 
 softmax (Softmax)           (None, 10)                0         
                                                                 
=================================================================
Total params: 3,275,434
Trainable params: 3,275,434
Non-trainable params: 0
_________________________________________________________________
Epoch 1/10
 1/22 [>.............................] - ETA: 20s - loss: 2.2998 - accuracy: 0.1094
…
